ch04/sine_model_quantized.tflite (tflite, 3196 bytes, 5 tensors)

sequential_1/dense_3/BiasAdd/ReadVariableOp f4 [16]
000000 00 00 00 00 54 ac e6 3e 6b 8e 42 be a5 f3 85 be
       0.0 0.4505335 -0.1899964 -0.2616245
000010 01 0d 76 bd 08 83 3b be d4 bc 90 3d ed 32 1d 3e
       -0.060070995 -0.18311703 0.07067266 0.15351458
000020 6f 8e 9a be 9c 6e f1 3d 73 d6 8a 3e 86 66 90 be
       -0.30186793 0.11788675 0.27116737 -0.2820322
000030 00 00 00 00 b1 63 57 be fe 8d 29 3e 09 1a 07 be
       0.0 -0.21034123 0.16558072 -0.13193525

sequential_1/dense_2/BiasAdd/ReadVariableOp f4 [16]
000000 44 ec 79 be 23 f1 84 3e 00 00 00 00 00 00 00 00
       -0.24406534 0.25965223 0.0 0.0
000010 c0 f8 9d be 3e 9a 10 3c 89 f7 49 3e 62 56 0c be
       -0.30853844 0.008825837 0.19723333 -0.13704827
000020 67 36 5b be 00 00 00 00 10 30 00 bd 00 00 00 00
       -0.21407472 0.0 -0.031295836 0.0
000030 00 00 00 00 00 00 00 00 00 00 00 00 4a 23 34 bf
       0.0 0.0 0.0 -0.70366347

sequential_1/dense_2/MatMul f4 [16, 1]
000000 07 3f bc 3e 19 01 60 bd 1a 6f 8c be fe 36 d7 be
       0.36766836 -0.054688547 -0.27428514 -0.42034143
000010 63 32 9c 3e e9 51 c8 3e f9 eb 4d 3e 1c 01 02 3e
       0.30507192 0.39124992 0.20109548 0.12695736
000020 b9 62 be 3d f0 a2 33 bd 05 a5 b5 3e d8 23 98 bd
       0.092961736 -0.04385656 0.35477462 -0.07428712
000030 aa 72 cb be 5c 4c 0b bf ac 42 0a bf 5f 42 27 3e
       -0.3973592 -0.5441339 -0.54007983 0.16333912

sequential_1/dense_3/MatMul f4 [16, 16]
000000 a6 66 7f 3e 65 09 da be a2 74 6c 3e 58 ea 04 bd
       0.24941501 -0.42585292 0.23091367 -0.03245005
000010 86 e4 3a 3e f8 e5 e6 bd e0 9d 6f bc 6b f7 ae 3e
       0.18251237 -0.11274332 -0.014625043 0.3417314
000020 70 c4 31 bd 70 a4 78 3d b1 74 b7 be ec 99 c6 3d
       -0.043400228 0.060703695 -0.35831216 0.09697327
000030 8c 6e 65 be 28 b8 22 bd 7a 28 0d 3e 82 00 20 3e
       -0.22405452 -0.039726406 0.13784972 0.15625194
000040 ed 59 86 be 15 dc 43 3f 8f 75 78 be d4 f4 e4 3d
       -0.26240483 0.76507694 -0.24263595 0.1117951
000050 c9 27 a2 3e c5 0a 82 bf ca 2e 6d 3e da a4 46 3f
       0.3167098 -1.0159537 0.2316238 0.77595294
000060 e4 e9 4c be 57 b3 bb 3e f9 6c 9d be 0b ed db 3e
       -0.20011097 0.36660263 -0.30747202 0.42954287
000070 06 9c a6 be 16 e7 27 3e 6b fb b8 3e ef f7 9e be
       -0.3254091 0.16396746 0.36129317 -0.31048533
000080 39 3f ec bd 3c 1b 8f be f6 4d 8d be 99 a3 91 3e
       -0.11535496 -0.27950466 -0.27598542 0.28445128
000090 39 ff c6 3e 5a 8d cd 3d 00 78 46 be f9 b3 85 3d
       0.38866594 0.10036726 -0.19381714 0.06528468
0000a0 b1 48 74 be b3 13 aa 3e ee 59 65 3e 51 14 c3 3e
       -0.23855855 0.33218154 0.22397587 0.38101438
0000b0 9c dd 94 be 9c 46 b7 bd f8 99 6a be 00 f8 e5 bf
       -0.29075325 -0.089490145 -0.22910297 -1.7966309
0000c0 d2 f2 c0 3e c2 7c 03 bf 99 4e b9 3e 60 d2 a8 bc
       0.37685257 -0.5136224 0.36192778 -0.020608127
0000d0 ba 22 98 3d 04 73 bb bd ef a6 5f 3e d7 cc c1 be
       0.074284986 -0.09152797 0.21841024 -0.37851593
0000e0 8d 39 c6 3e a0 c6 5a 3d 3a 3d 1e 3e fa 55 0d 3e
       0.38715783 0.05341208 0.15453044 0.13802329
0000f0 2e 3a 72 3e f6 52 3c 3e 70 05 0c 3d 4e b7 eb bf
       0.23655006 0.18391022 0.034184873 -1.8415315
000100 00 00 87 37 0c a0 a2 3d f8 7f 2e bd c9 c0 b0 3e
       1.6093254e-05 0.07940683 -0.04260251 0.34522083
000110 51 75 af be 6a 40 96 bd 9c ad 37 3e 1c aa a9 3d
       -0.34269193 -0.07336505 0.1793732 0.08284399
000120 d2 74 01 3e 09 67 9a 3e c8 ef b1 be aa 3f 42 be
       0.1264222 0.30156735 -0.3475325 -0.18969598
000130 73 d0 7a be 30 27 5b bd 30 d7 4e 3d 91 73 ae 3d
       -0.2449358 -0.05350417 0.050498188 0.08518136
000140 fc 44 14 3e 47 fd b4 be 6b 3a d7 be 35 6e ce be
       0.1447944 -0.35349485 -0.42036757 -0.40318456
000150 2d 4c 8d be af 17 49 3e 79 2e 08 3e 27 10 a2 3e
       -0.2759718 0.19637941 0.13298978 0.31652948
000160 77 61 54 3d 99 3e b6 3e 65 ee 11 bd 20 92 9b bd
       0.051850762 0.35594633 -0.03562774 -0.075962305
000170 34 23 a5 3d a3 14 8c 3e d0 69 93 be 0c 94 be bf
       0.08063355 0.27359495 -0.28791666 -1.488893
000180 f2 d1 87 be 24 9d 31 3e 45 3a d3 3e 80 fd e4 bc
       -0.26527363 0.173451 0.41255394 -0.02795291
000190 1b 52 aa 3e aa 4a 02 be c1 3d 9d bc d8 84 9a bd
       0.33265767 -0.12723795 -0.019194486 -0.07544869
0001a0 8a 5c af be 59 a6 a6 3e 2a 9b 0b bf e7 40 8a 3e
       -0.3425029 0.32548788 -0.54533637 0.27002642
0001b0 40 6d b4 bc 40 cd 3c 3c cf a5 b9 3e 74 50 ba bd
       -0.02202475 0.011523545 0.36259314 -0.090973765
0001c0 7c 77 04 3e 2b 51 f8 3c 01 54 d7 be 04 31 a6 bd
       0.12936205 0.030312141 -0.42056277 -0.08114818
0001d0 ac 6c bb 3d b6 22 ab 3b 53 42 ab 3e 07 c1 c2 bd
       0.09151587 0.0052226437 0.3344904 -0.09509473
0001e0 b3 cc 14 3e c8 6f 82 3d 43 6f 0e be 8c 11 aa be
       0.14531212 0.06368977 -0.1390963 -0.33216512
0001f0 fa 86 96 be a3 f8 6a be f0 48 a0 3c b6 a9 b5 3f
       -0.29399854 -0.2294641 0.01956603 1.4192417
000200 fa 5c cf 3e b0 53 ff bd 3c ea 92 3d 6e f1 0d 3e
       0.40500623 -0.12467134 0.07173583 0.1386163
000210 9e 9c 6f bd 64 7d b5 3e 45 c4 2a 3e 3b 44 d8 3d
       -0.05849897 0.35447228 0.16676433 0.10559889
000220 e2 f1 5e 3d f8 70 d6 bd 8a 9e 81 be 80 d6 82 bd
       0.054429896 -0.10470766 -0.25316268 -0.06388569
000230 6e 80 91 be f6 c9 1b be 5f 80 d6 3e e1 f7 f4 bf
       -0.28418297 -0.1521376 0.41894814 -1.9138147
000240 10 6d 34 bd de b3 5b 3e e9 f5 bd be 10 95 66 bd
       -0.044049323 0.21455333 -0.37101677 -0.0562945
000250 eb ee 86 3e 29 91 83 be f6 1b 90 3e 46 0c 44 3e
       0.26354155 -0.25696686 0.28146333 0.19145307
000260 c3 52 ff be 42 31 77 3e 23 24 78 3d 7a 77 7f be
       -0.4986783 0.24139884 0.060581338 -0.2494792
000270 0d d6 c4 3e 60 cf c5 be 5e 1f 6b 3e 1a d7 f3 3f
       0.38444558 -0.38634777 0.22961184 1.9050019
000280 4a 48 b3 be c8 aa 87 be 69 6c 68 be 12 d3 19 3e
       -0.3501609 -0.26497483 -0.22697605 0.15021923
000290 49 07 5e be 0b d2 ba 3e e9 01 d0 3e 5f 28 cf 3e
       -0.21682467 0.36488375 0.40626457 0.40460488
0002a0 94 76 21 3d 98 eb 3c be 94 25 63 be b5 46 d2 3e
       0.039419726 -0.18449247 -0.22182304 0.4106957
0002b0 8f 88 d7 3e ad 6a dd be b7 23 dd 3e 50 9c 50 c0
       0.42096373 -0.4324545 0.4319131 -3.2595406
0002c0 8b 86 4b be 3d 78 8d bd 88 a2 84 bd 86 fe 07 3e
       -0.19875543 -0.06907699 -0.06476313 0.13280687
0002d0 ae d7 ea 3e e1 96 9a 3e b5 c5 cc be 40 66 b6 3e
       0.45867676 0.30193236 -0.39994588 0.35624886
0002e0 2b 55 1d 3e 8d 96 84 3e 56 42 3c 3e 02 89 4f 3e
       0.1536452 0.2589611 0.1838468 0.20267108
0002f0 b8 3d e5 bd b6 f2 ac be 5f 74 93 3e 17 b1 ed bf
       -0.111934125 -0.33778924 0.28799722 -1.8569669
000300 38 67 99 be c0 08 9b be 2a 35 73 3e 80 5f bf bc
       -0.29961562 -0.30280113 0.23750749 -0.023360968
000310 70 0a 07 3d ca 56 1a 3e 59 8d b2 be 8a 0d 64 3e
       0.03296894 0.1507217 -0.34873465 0.2227079
000320 42 40 49 be 34 4d 9c 3d 10 5b 9a be 60 49 03 3d
       -0.19653419 0.07631913 -0.301476 0.032052398
000330 6c 73 c2 be e0 ae 24 3d d8 5c 08 3d 0c 83 29 be
       -0.37978685 0.040205836 0.033291668 -0.16553897
000340 3c dd bd bd d8 0c b8 bd 90 dd 5f bd 3a 21 a4 be
       -0.09270713 -0.08986825 -0.054654658 -0.320566
000350 81 d7 9e 3e 08 ce e1 bd 4f cb 3f bd aa 28 b9 be
       0.3102379 -0.110256255 -0.04682475 -0.36163837
000360 bb d1 27 3e 43 0a c6 3e 4e 54 db 3e 66 37 09 be
       0.163886 0.38679704 0.42837757 -0.13400039
000370 d8 f3 4d be 76 a1 67 3e b3 7a a0 3e 82 6d c9 bf
       -0.2011255 0.22620186 0.31343612 -1.5736544
000380 7f dc 93 be 7a 5f d2 3e 25 77 9e 3e ed 3a 4c be
       -0.28879163 0.41088468 0.30950275 -0.19944353
000390 2d 3f a4 be 10 64 49 3e 6a ec cf 3d a1 3d c5 be
       -0.3207945 0.19667077 0.10152514 -0.38523582
0003a0 6f 42 4b bd c0 50 15 3d 62 62 80 3e d2 a6 36 be
       -0.049623903 0.036453962 0.2507506 -0.17837074
0003b0 30 db 4d be f8 95 4c bd 60 76 cc bc 77 52 d6 3f
       -0.20103145 -0.04994771 -0.02495879 1.6743916
0003c0 c5 31 f0 3e 7f 0f 05 bf ac 4b f0 bd 69 1b cc be
       0.4691297 -0.5197677 -0.11733183 -0.39864662
0003d0 4f 03 c7 3d 93 ab 93 3c 50 45 1e 3e b2 8f 70 3e
       0.09717428 0.018026149 0.15456128 0.23492315
0003e0 49 76 db 3e d6 b1 1c 3e ae 3d 18 be db 53 b5 3e
       0.42863682 0.15302214 -0.14867279 0.3541554
0003f0 84 45 c8 bd 81 fb cd 3e e4 4e 4d be 2f 47 ed bf
       -0.09778884 0.40230945 -0.20049626 -1.8537349

sequential_1/dense_4/MatMul f4 [1, 16]
000000 dc be ff 3e 23 dc 6b bf b4 3e 6c bf 82 cf 2e bf
       0.49950302 -0.92132777 -0.9228318 -0.6828538
000010 80 b3 a1 3e 0a 56 3e bf 16 24 51 bf ca be 94 3e
       0.3158226 -0.74350035 -0.8169569 0.2905181
000020 0d 56 54 bf 30 b4 c4 3d 38 f6 9b 3f b3 e9 b4 be
       -0.82943803 0.096046805 1.2184515 -0.35334548
000030 14 83 c9 bd 6a 58 29 bf bf f9 05 3f 19 ca 02 bf
       -0.09839454 -0.66150534 0.5233421 -0.51089627
